PyTorch/model_dir/CNN_model.pth (torch, 186119 bytes, 10 tensors)

weight f4 [8, 1, 5, 5]
000000 85 f7 3c 3f fc 3a ca bd 11 97 54 3d d4 dd c4 be
       0.73815185 -0.098745316 0.05190188 -0.3845049
000010 65 60 78 3d 3a 6e bd 3e a6 ca 85 3e ab 3c 45 bf
       0.060638804 0.3699816 0.2613117 -0.77045697
000020 8a 27 d5 3e f7 3b e2 3d 77 44 df 3d 3d ed 1a 3e
       0.41631728 0.11046594 0.109017305 0.15129562
000030 21 d7 1d bf 9c f2 98 3a 50 ac da 3d 20 50 b5 bc
       -0.61656386 0.0011668983 0.10677397 -0.022132933
000040 03 5e 3b be 58 10 89 3e 84 92 5b 3d 11 37 bc bd
       -0.18297581 0.26770282 0.053606525 -0.091901906
000050 e8 a0 0b bd bd ab ed be 48 9d e0 3d 93 fe 27 3f
       -0.034089 -0.46420088 0.10967499 0.65622824
000060 e2 da c3 bc d9 42 07 bf 75 39 51 3f fe 63 19 bf
       -0.023908082 -0.52836376 0.817283 -0.599182
000070 f2 4b aa 3e ec 76 28 3d 94 ad a0 be 29 19 19 3f
       0.33261067 0.041129038 -0.3138243 0.59804016
000080 d8 9f 3d bf c6 b7 02 3f ea 87 d6 be d2 f2 ca 3e
       -0.7407203 0.51061666 -0.4190057 0.39638382
000090 c3 a0 26 bf ec 2f a9 3e 03 0d 6d 3e 7e f2 dd be
       -0.6508905 0.33044374 0.23149495 -0.4334907
0000a0 55 e4 18 3f aa 81 8d 3d ac 70 9a be ee f7 5e ba
       0.5972341 0.06909497 -0.30164087 -0.00085055723
0000b0 aa 67 6c bd 97 a1 a9 3e a2 e9 21 be 20 06 36 be
       -0.05771605 0.33131096 -0.1581178 -0.17775774
0000c0 ba e9 a7 3e 17 b9 54 be c7 ae fe be 19 26 0e 3d
       0.32795507 -0.20773731 -0.4974272 0.0347043
0000d0 f6 e2 36 be 4c 65 a9 3e 6a 20 ef 3e b7 3a 49 bf
       -0.17860016 0.33085096 0.46704417 -0.78605217
0000e0 a7 fd 34 be 0e d9 e6 3d a3 1c b3 3e 6b 66 ab 3e
       -0.17674886 0.11271869 0.34982786 0.33476576
0000f0 bf bf 9e be 4d 7c 88 bd e3 12 b6 3e 8c 36 94 bc
       -0.31005666 -0.066643335 0.35561284 -0.018092416
000100 17 b0 1b 3e cb 87 22 be 8b 8d 73 be bd 15 6a 3e
       0.15203892 -0.15872113 -0.23784463 0.22859855
000110 96 8f 79 3e 8b 8f f9 bb 88 bb 82 bd 10 c7 67 bd
       0.2437118 -0.0076159886 -0.06383425 -0.056586325
000120 3c bd 28 be c9 dd d7 3e c9 cc 84 be 01 e7 8f be
       -0.16478437 0.42161396 -0.2593749 -0.2810593
000130 cc 42 1d be 80 4f 05 3f e5 b9 f4 3e 3e 80 16 3f
       -0.15357512 0.5207443 0.47798076 0.5878943
000140 8a 6f 36 bb 34 22 ed bd 00 c4 42 3e e7 5d 0d 3f
       -0.0027837479 -0.11578789 0.1902008 0.5522141
000150 9f 16 86 3e 1c 67 9d be 5d c7 92 3e 08 1c 94 3e
       0.26189134 -0.3074273 0.28667727 0.28927636
000160 10 18 0c 3e b5 d3 0c bf b8 f4 fa bc 9e 81 dc 3e
       0.13681054 -0.5501054 -0.03063427 0.4306764
000170 12 94 a9 bd 3a 34 30 bf 67 44 b4 be bf fa 43 3e
       -0.08280195 -0.6882969 -0.35208437 0.19138621
000180 74 ea c4 be b3 b9 98 bf eb 86 36 bf f6 f4 62 bd
       -0.38460124 -1.1931671 -0.7129962 -0.055409394
000190 b1 d7 8c 3e b4 6f f8 bd 89 b5 62 bf 6e 55 73 bf
       0.2750831 -0.12130681 -0.8855825 -0.9505223
0001a0 70 64 86 c0 ef 29 ac 3d 89 ab d7 3e 08 a0 67 3e
       -4.1997604 0.08406436 0.42123058 0.22619641
0001b0 a6 9f 31 3e 0b 8f 33 bf fa b0 ca 3e 87 b5 a4 3e
       0.17346057 -0.7014014 0.39588147 0.32169744
0001c0 47 4d 47 3d 34 f4 ff 3b ac e5 cc 3e 88 90 06 be
       0.04865768 0.0078110937 0.40018976 -0.13141072
0001d0 14 4a 16 3e 0a 88 2e 3d 7c b8 be be 32 2d 7d be
       0.14676696 0.042610206 -0.37250125 -0.24724272
0001e0 13 ba 8a 3e 7b 72 be bd 2c 8f 21 3e 80 cf 03 be
       0.27095088 -0.09299179 0.15777272 -0.12872124
0001f0 7d 94 55 be 08 d3 84 3e 9f 9d 8a be 28 ca be 3e
       -0.20857425 0.25942254 -0.2707338 0.37263608
000200 7b 52 0f 3f a3 ae d5 3e c9 bd 3d bc 8d 06 e4 be
       0.5598523 0.417348 -0.011580893 -0.44536248
000210 ca 0f 05 3f d4 3c ce bc 8f 9b 0c be 90 48 2b be
       0.5197722 -0.02517549 -0.13731216 -0.16726899
000220 93 b2 04 bf aa 22 c2 3e de 86 f4 bd 38 69 64 be
       -0.5183498 0.37917072 -0.119397864 -0.22305763
000230 dd be 00 bd 79 45 e3 be 7d 84 0f 3f 04 06 ee 3c
       -0.03143202 -0.4438894 0.56061536 0.029055603
000240 56 bb 06 3d 41 25 30 be e6 88 d7 be 3e 42 87 3e
       0.0328935 -0.17201711 -0.42096633 0.26417726
000250 04 78 09 3e d4 ac df bd ef be 6e 3d 76 13 fd 3c
       0.13424689 -0.10921636 0.058287557 0.030893069
000260 11 b6 8c 3b 17 23 29 be 9f 43 b9 3d ce ac ee bd
       0.004294165 -0.16517292 0.09046101 -0.11654054
000270 4a 77 e4 3d cf f1 bc bd 75 30 fc 3d 9c be 1c bb
       0.11155565 -0.09225809 0.1231393 -0.0023917323
000280 f0 20 e5 bc 9b 70 12 bd 29 aa 1f 3e 23 a2 fb be
       -0.027969807 -0.03575192 0.15592255 -0.49147138
000290 a9 3d b1 3e 58 5e 97 be 50 e6 30 3f c3 01 da 3e
       0.34617355 -0.29564166 0.6910143 0.4257947
0002a0 2b 3a 44 bf 5f bb 7e bd f7 2b 08 3f b8 98 86 3f
       -0.7665126 -0.06219041 0.53192085 1.0515356
0002b0 4a 7e c9 be 2b 43 98 bf 53 33 75 bd 91 7c 59 bf
       -0.39354163 -1.1895498 -0.0598634 -0.849557
0002c0 98 50 43 bf 9d 05 36 3e 8e 89 3f 3f 2a 9d 80 3e
       -0.7629485 0.17775579 0.74819267 0.25119907
0002d0 84 14 b5 3e 9a 09 57 3f dd be 14 3f 0b fe 3f bb
       0.35367215 0.83999026 0.58103734 -0.0029295709
0002e0 5c 9e 5b be 1f ee d3 3e 5a 6e 55 3e 96 fa 03 bf
       -0.21447128 0.4139261 0.20842877 -0.5155424
0002f0 80 18 c4 be f1 6f 4d 3e 25 96 03 3d 25 f8 9c be
       -0.38299942 0.20062234 0.03212561 -0.3065807
000300 10 7f 26 be 0a a8 89 bd 33 92 47 be e6 bd 17 3d
       -0.16259408 -0.06721504 -0.19489364 0.037046336
000310 f9 4e 1c 3e 9f 69 99 3c 73 6b c3 bd 36 7c 04 bd
       0.152645 0.018727122 -0.09541979 -0.03234502

bias f4 [8]
000000 7b 78 c3 be b1 60 97 bc 59 cc 5b bc 93 52 48 3e
       -0.38177857 -0.018478723 -0.0134154195 0.1956275
000010 ce 09 d6 3e 0a 07 e6 bc 01 11 47 bb 3b 3c 39 be
       0.41804355 -0.028079528 -0.0030375125 -0.18089382

weight f4 [16, 8, 5, 5]
000000 c0 93 f7 bd e8 ba 77 bf 15 36 d3 bd 93 a8 16 3e
       -0.12088728 -0.9676957 -0.1031305 0.14712743
000010 6f 68 35 3f 38 e8 b1 be 9e 14 58 bd 04 8d 2f be
       0.7086248 -0.3474748 -0.052754037 -0.17143637
000020 a2 be dd 3e 80 f7 b0 3e 02 fc 8a be 59 b1 2e 3f
       0.43309504 0.34563828 -0.27145392 0.6823936
000030 83 5b 20 bf f7 ec cb 3e 51 d3 ee 3c 6b 74 fe bd
       -0.62639636 0.39829227 0.029153498 -0.12424549
000040 5c 1b bb bd be 26 fc be 6d 63 62 3c 05 15 19 be
       -0.09136078 -0.49248308 0.01381765 -0.14949425
000050 f3 01 c5 be 34 7a b6 3e bf 46 69 3e 32 b5 94 bc
       -0.3847805 0.3564011 0.22780894 -0.018152807
000060 9d 17 b2 3e 4c d9 dc be e5 42 85 bf 5b 4f 13 bf
       0.3478364 -0.43134534 -1.041104 -0.5754296
000070 78 16 9e 3d d7 12 c3 be 18 24 5b 3c 49 ca 44 bf
       0.07719129 -0.3810031 0.013375305 -0.7687116
000080 ae 11 82 be 01 9a 4e bd 15 85 6b 3d 89 29 52 3d
       -0.25404114 -0.05043984 0.057499964 0.051309142
000090 16 06 05 bf 38 2c f5 bc 7b 36 9c be 2a 8e 59 be
       -0.5196241 -0.029928312 -0.30510315 -0.21245638
0000a0 54 16 03 3f f9 cd c9 3e be 03 b2 3d d1 43 09 3e
       0.51205945 0.39414957 0.0869212 0.13404776
0000b0 31 22 f0 3e 37 86 02 3f ce e2 ab 3e 95 41 e5 bd
       0.46901086 0.50986046 0.33571476 -0.111941494
0000c0 2d 70 0e 3f 31 84 74 3e 73 20 36 bf e6 9e aa bc
       0.55639917 0.23878552 -0.71143264 -0.020827722
0000d0 b6 62 1f 3f 28 6a c8 3d d0 fc 90 be 51 05 5d 3d
       0.62259996 0.09785873 -0.2831788 0.05396015
0000e0 b6 5b 4f 3e a7 61 2e be 27 09 34 3c a7 33 8f 3e
       0.20249829 -0.17029439 0.01098851 0.27969095
0000f0 00 53 47 be c2 0f 06 3e aa a5 2c 3e 1b 65 97 be
       -0.19465256 0.13091949 0.16860071 -0.29569325
000100 51 69 2b 3f 2d fb ce 3c f4 65 13 3e b2 01 89 be
       0.66957575 0.025266254 0.14394361 -0.26759106
000110 45 4d 5f 3e 46 98 a9 bd 14 e8 82 3e b5 97 fc 3b
       0.2180682 -0.08280997 0.25567687 0.0077085146
000120 93 87 d0 3d c3 18 84 3c ac c5 22 3e 37 74 38 bf
       0.10182109 0.016125089 0.15895718 -0.7205233
000130 38 0f f0 bd 16 91 03 be f8 54 c7 bb 3c 7c 93 3d
       -0.11721653 -0.12848315 -0.006083127 0.0720143
000140 4d ff f0 3e 4f ab cc 3e a9 d5 f5 3d 8c e3 70 3e
       0.4706978 0.39974448 0.12003643 0.23524302
000150 33 df 04 3e b4 a2 4c 3e 13 03 0f bf 92 c7 ba 3d
       0.12975769 0.19983941 -0.55864066 0.09120096
000160 e7 bc 22 3e df 58 e1 3d ab cf c9 be 20 1c 9b be
       0.15892373 0.11003279 -0.3941625 -0.30294895
000170 aa a5 28 bf 94 df aa be 5e 00 16 bf 4d dc 64 be
       -0.65877783 -0.33373702 -0.5859431 -0.22349663
000180 b9 b5 2c 3e 0a b8 f0 be d7 00 a6 3f a0 60 83 3e
       0.16866197 -0.4701541 1.2969006 0.25659657
000190 43 98 d1 3d 02 24 20 be 71 e1 a3 bf 1b 64 ef be
       0.1023412 -0.15638736 -1.2803174 -0.46756062
0001a0 c7 b4 3f 3f bf 50 2e 3e 6f f3 6f bf 82 bd e8 be
       0.7488522 0.1702299 -0.93730825 -0.45457083
0001b0 e6 a8 19 be 26 c8 6f bd 50 5a 3a 3f df 77 68 be
       -0.15005836 -0.058540486 0.72794056 -0.22701977
0001c0 13 9b bd 3d 0d 80 ab 3d da 5d 07 3f 7b 19 d5 3d
       0.09258094 0.08374033 0.5287758 0.10405251
0001d0 90 bb 52 3e e4 6e cc 3e 2b 78 d7 be 4e b1 e4 3c
       0.20579362 0.39928353 -0.42083868 0.027916577
0001e0 00 9a 0b 3e 4b 14 f9 3d 61 12 01 3f a8 3a 7a 3d
       0.13632965 0.12162074 0.5041867 0.061091095
0001f0 ce c0 79 bf 45 59 8a be 52 96 18 bf 8a d1 00 bf
       -0.9755982 -0.27021232 -0.5960437 -0.5031973
000200 7c a6 61 3e f9 34 c7 bd f1 f8 ab 3e a5 d6 55 3c
       0.22036165 -0.097269006 0.33588365 0.0130516635
000210 6a 2f 46 be 31 b8 c1 3d ad 1c 88 3e 87 c6 ad 3d
       -0.19354025 0.0945896 0.26584378 0.08485132
000220 24 66 53 3e d9 97 b4 3e 4e 01 77 3c 68 6e c0 3e
       0.20644432 0.352721 0.015075995 0.37584233
000230 f6 17 ca 3c 8f 9b 2f bd e1 fc 71 be 6a 11 6c 3d
       0.024669629 -0.04287296 -0.23631622 0.057633795
000240 8c 6c d6 bc 09 e7 23 be bb b9 65 3e ba 9d 85 be
       -0.026174806 -0.16006102 0.22434132 -0.26096898
000250 9b 66 96 be 54 ca f5 3e 9a df 14 bb eb 0b 56 bf
       -0.29375157 0.48005927 -0.0022716285 -0.83611935
000260 a5 47 44 3e 72 00 c9 3e e9 32 e4 3e 38 85 21 3e
       0.19167955 0.39258152 0.4457009 0.15773475
000270 1f 8b 77 bd cf d4 89 be 1d 53 d3 be a4 4c 83 be
       -0.06043541 -0.26920173 -0.41274348 -0.2564441
000280 c0 4d 61 be 02 52 83 3e a7 b4 83 be 60 98 f6 be
       -0.22002316 0.25648504 -0.25723764 -0.48163128
000290 92 c1 ad be fa 8e 32 bd f3 34 31 3f 4f d8 92 3e
       -0.33936745 -0.043593384 0.6922142 0.28680655
0002a0 13 85 30 bf 56 2d 89 be 9d 98 9b be e9 81 91 3e
       -0.68953055 -0.267924 -0.30389872 0.28419426
0002b0 ec 87 ac 3e 11 17 b1 3f 2c b6 45 bc 76 09 07 bf
       0.3369745 1.3835164 -0.012067359 -0.5274881
0002c0 c5 14 6d 3d c2 c1 f3 3e 89 b8 00 3f 5f 9a c9 be
       0.057881135 0.47608763 0.5028158 -0.39375588
0002d0 33 12 09 3f 6a 79 16 3f 0c de 1f 3e c0 80 f6 bd
       0.53543395 0.58779013 0.15612048 -0.12036276
0002e0 66 93 58 be bc 13 8e be 94 1a 9d bd fe f7 8f 3e
       -0.21149978 -0.2774943 -0.07671085 0.2811889
0002f0 91 cb 9d be 4f 6f 05 3f cb 91 c7 be f5 0c b7 be
       -0.3081937 0.5212297 -0.3897842 -0.35752073
000300 dc 4d 51 3d 3e 55 20 bf c6 37 88 bd 8c c3 15 3e
       0.051099643 -0.6263007 -0.06651263 0.14625376
000310 00 00 29 bd e4 d4 b3 be c0 b4 3f be b6 ff b8 be
       -0.041259766 -0.3512336 -0.18721294 -0.36132592
000320 51 1d 06 bf d3 09 e5 bf 34 28 a5 bf 8d a5 0d be
       -0.52388483 -1.7893623 -1.2902894 -0.13832684
000330 3d 90 17 3e c9 ca 27 bf 15 2a b3 be 36 c3 25 be
       0.14801116 -0.655438 -0.34993044 -0.16187748
000340 e3 38 71 be f4 f0 80 be f9 00 5d be 8b 7f 5d bd
       -0.23556857 -0.25183833 -0.21582402 -0.054076713
000350 ed 3e 2d 3e 4a 63 f8 3d a6 0b 94 3d e9 a0 d4 bd
       0.16918536 0.12128313 0.07228784 -0.10382254
000360 e1 f8 50 be d7 39 8b 3d a3 32 ab 3e 3f fa 12 3e
       -0.2040744 0.067981414 0.3343707 0.14353274
000370 d8 de ff 3e 0d 41 0b 3f 8a 44 03 3f 21 a3 a7 3e
       0.49974704 0.54396135 0.5127646 0.32741645
000380 99 71 58 be 6b 5b 84 3f 62 9a 3f bf 50 61 82 be
       -0.21137084 1.0340399 -0.74844944 -0.2546487
000390 c2 2c 43 3e 5f 62 7a 3f 9f 91 a4 3e 48 c9 2c bf
       0.19060043 0.9780635 0.3214235 -0.6749463
0003a0 e3 48 e4 be 13 26 b1 3e ed 99 02 3e 44 d0 8b 3d
       -0.44586858 0.3459936 0.1275403 0.06826833
0003b0 c8 dd 49 3e 0c a5 18 3f 77 85 08 3f b3 ad 7f bf
       0.19713509 0.5962684 0.5332865 -0.9987442
0003c0 72 ec 26 be 40 79 25 be ac 2d 13 3e 4a 4e 73 bd
       -0.16301134 -0.16159534 0.14372891 -0.059400834
0003d0 ad 4a ca ba 4a 6c 60 3f 32 23 8b 3e 3f 1d 60 3e
       -0.0015433632 0.87665236 0.2717529 0.21886156
0003e0 ae 50 dd 3d 3c 7e 2a 3f 92 d2 70 bf 2b f2 91 bf
       0.10806404 0.6659887 -0.94071305 -1.1402029
0003f0 0b 6f b6 3d 3c 14 3a 3e d7 01 a6 3c b7 47 e3 bf
       0.089078985 0.18171781 0.02026455 -1.7756261

bias f4 [16]
000000 d6 57 0f bf eb 78 f1 be 46 ef 8c be 98 16 53 3f
       -0.559934 -0.47162566 -0.275263 0.8245635
000010 eb ef f9 be 07 51 f5 3e 25 1f ba 3d af 60 b1 be
       -0.48815855 0.4791338 0.090879716 -0.34644076
000020 93 45 8a bd 45 a2 3d bf c2 6c a0 3e 61 45 34 be
       -0.067515515 -0.7407573 0.31332976 -0.17604591
000030 bc 4c 7e 3e b7 6a 09 bf b0 c5 6c bc 21 59 37 bd
       0.2483396 -0.5367846 -0.014451429 -0.044762734

weight f4 [128, 256]
000000 f5 32 a5 3e 89 b1 13 be 64 c0 b8 bd f8 6c 8c bf
       0.3226544 -0.14423193 -0.090210706 -1.0970755
000010 65 80 0d 3b e0 1a 47 3f 7e 02 98 be f9 b8 1b be
       0.0021591422 0.77775383 -0.296894 -0.1520728
000020 19 8e 3f be d7 f9 7c 3e eb 45 40 bf 79 2b e3 be
       -0.1870655 0.24704681 -0.75106686 -0.44369105
000030 e4 c3 7b 3d 46 bd b0 3d bc 72 47 bf ba d1 ff 3e
       0.061466113 0.08629851 -0.77909446 0.49964696
000040 fe 04 d9 3e 5e df 18 3f 40 06 40 3e 81 2f cd 3c
       0.4238662 0.5971583 0.18752384 0.025047066
000050 18 7c 9a 3e b7 6c 86 3d 6e 53 35 3f cf a9 f7 be
       0.301728 0.065637045 0.7083043 -0.4837174
000060 9a 4b ad 3e 19 d4 36 bb 7b f2 9e bd b4 2d 18 bf
       0.33846742 -0.0027897416 -0.07761093 -0.5944474
000070 2a 60 1a 3f cf 24 8f be 10 0c c5 bd 5f 17 83 be
       0.60302985 -0.2795777 -0.09621441 -0.25603768
000080 57 ef 0f 3e 8c a7 3f be 6e ca 28 be 56 87 c7 3e
       0.14056145 -0.18716258 -0.16483471 0.3897044
000090 b1 c0 11 3e 3f f1 1e be 60 a1 25 3f 14 45 5d 3d
       0.14233662 -0.15521716 0.64699364 0.054020956
0000a0 d2 12 25 3e ef f5 c8 bd f8 3d 87 3e 7d 0b bf 3c
       0.1612046 -0.09812533 0.26414466 0.023320908
0000b0 3e f1 2b 3e a9 e8 78 bf f8 55 8b bf 8b dd 30 bf
       0.16791245 -0.9723001 -1.088561 -0.6908805
0000c0 32 bc 24 3f a9 ac 24 bd d0 ad 06 bd 83 49 a7 bf
       0.64349663 -0.040203724 -0.032880604 -1.3069309
0000d0 bf 5d 2c be f5 bc 90 3e 47 c4 60 bd 00 8c b5 3e
       -0.16832636 0.28269163 -0.054874685 0.35458374
0000e0 c0 a9 34 3e 1a 3c b9 3d f0 95 fe be 03 10 8a bd
       0.1764288 0.090446666 -0.49723768 -0.06741335
0000f0 d0 72 58 3e 51 02 2e 3e 5b 33 1e 3e eb c9 d4 bd
       0.21137547 0.16993071 0.15449278 -0.10390075
000100 1f 01 fe be 56 72 f9 be 80 0a c1 be d6 94 10 3f
       -0.4961023 -0.48720044 -0.37703323 0.56477106
000110 9f b5 b3 3e c3 da 90 be 58 3f aa bd 8f 03 d1 bd
       0.35099503 -0.28291902 -0.08312863 -0.10205757
000120 54 a1 05 be f6 b2 00 3f 46 cc 01 3d 85 bd 6f 3e
       -0.13049823 0.5027307 0.03168895 0.2341214
000130 06 1e c1 3d 03 9e a7 3e 60 9e 6a bf b9 41 93 3d
       0.09429555 0.3273774 -0.9164791 0.0719027
000140 d5 a4 36 3e 2d f3 4a 3e 74 28 c2 3e e1 d2 3e bf
       0.17836316 0.19819327 0.37921488 -0.74540526
000150 23 ca 1f 3f e6 a8 2a 3d 41 10 b9 bd 0c 16 67 3e
       0.6241781 0.04166498 -0.09036303 0.22567004
000160 73 d3 bc be 49 50 94 be 4a 16 00 3f 6d 6a 4a 3f
       -0.36880073 -0.28967503 0.5003401 0.7906864
000170 46 5a 96 3f 22 55 3e 3d 4e 17 60 be 44 65 ea be
       1.1746299 0.046467908 -0.2188389 -0.45780385
000180 69 58 b9 3b b6 12 c6 3e 7a 15 8d be a6 4f b5 bf
       0.0056562913 0.3868615 -0.27555448 -1.4164932
000190 44 26 62 be 6d b0 0b 3d 6f ff b7 be d3 06 06 3f
       -0.2208491 0.0341038 -0.35937068 0.5235416
0001a0 b6 3e 0b 3f 57 67 9c 3e 26 e3 81 be 7e 79 f4 bb
       0.54392564 0.30547592 -0.25368613 -0.007460772
0001b0 d0 87 c4 3e c0 38 d6 be 14 de 69 be a0 e1 c2 bf
       0.38384867 -0.41840172 -0.22838622 -1.5225105
0001c0 6b a1 09 3e 2f 1d 04 be 18 63 5f 3e 06 28 c6 bc
       0.13440482 -0.12901758 0.21815145 -0.024189007
0001d0 91 d4 8e 3d 01 11 1f bd 65 df f7 3e cd a1 4c be
       0.069741376 -0.038834576 0.48412624 -0.19983597
0001e0 5d b7 9f bb 4b 5b bf 3e f2 77 4e be 6e 93 47 bd
       -0.0048741535 0.37374339 -0.20162943 -0.048724584
0001f0 c6 d9 11 3d 8b 0a 08 3e 75 9a aa 3e 3c c9 5a bd
       0.035608076 0.13285272 0.33320966 -0.05341457
000200 97 0e a7 3e a8 20 00 3e 1d 53 d4 be 2d 36 0b bf
       0.3262832 0.12512457 -0.4146966 -0.5437954
000210 47 95 0c bf 45 6a 71 3e 87 fd 38 3e 2c c0 80 be
       -0.5491528 0.23575695 0.18065463 -0.25146616
000220 0e b6 29 be 78 6c 2d bf a3 ed 44 3e c0 84 a2 be
       -0.16573355 -0.67743635 0.19231276 -0.31741905
000230 89 09 72 be b8 74 73 be 46 f3 4d 3f b8 75 41 be
       -0.2363645 -0.23774993 0.8044933 -0.18892562
000240 c3 14 0c bf 4d 8a 16 3f ff 11 c7 3d f6 f3 08 bf
       -0.5471918 0.5880478 0.09720229 -0.53497255
000250 cb 1e 0d 3c 39 35 a0 be ae 37 7b 3e b8 8a 95 be
       0.008613299 -0.31290606 0.24532959 -0.29207397
000260 ab 45 7b be 27 1d f9 3e 7f 0c c3 be 2b 1c b0 3e
       -0.24538295 0.48655054 -0.3809547 0.3439649
000270 08 08 b0 be 2a 75 cc 3e 55 94 86 bf 4e 20 29 3f
       -0.34381127 0.3993314 -1.0514017 0.6606492
000280 5b 18 e2 be 3d f5 d0 be c2 fd c3 be 15 ce 9d be
       -0.44159207 -0.40812102 -0.3827954 -0.3082129
000290 9d f9 38 be 73 cc d3 3e 3b 78 87 3e a4 f5 5e bf
       -0.1806397 0.4136692 0.26458916 -0.8709357
0002a0 18 b0 43 bf af ef 13 be 72 ae 8c 3d 70 ce f8 be
       -0.7644057 -0.14446901 0.0686921 -0.48595
0002b0 d6 7b 12 be 8a 22 f9 3d 8f a9 d1 3e 33 51 f3 3e
       -0.14305052 0.12164791 0.40949675 0.47522888
0002c0 dd 40 7d 3e ee 28 03 3e 13 15 07 3e a0 a1 7d be
       0.24731775 0.12808582 0.13191633 -0.24768686
0002d0 ae f7 07 3e fd ae 02 bf fd 46 86 3e 46 bf b6 3d
       0.13278076 -0.5104826 0.26226035 0.08923201
0002e0 ab 46 4b be 67 2b bf 3d 04 94 6f be 96 f0 4e 3e
       -0.19851176 0.0933445 -0.23396307 0.20208964
0002f0 a3 54 70 3e 0f e8 3d 3e 34 af 8a 3e 2d c1 9f bd
       0.23469786 0.18545555 0.27086794 -0.07800517
000300 ee ea 05 3f 32 de 86 3e c0 84 e7 3b 44 a8 6a bd
       0.523116 0.26341397 0.0070653856 -0.057289377
000310 6c 80 27 3f 6f dd a1 3e db 53 c5 3c 40 7f eb 3e
       0.6543033 0.31614253 0.024087837 0.45995522
000320 9f 35 66 3d 06 fc 00 bf 2c 20 91 be f8 98 b2 be
       0.05620348 -0.5038456 -0.28344858 -0.3488233
000330 32 1e 8e bf 69 6c 66 bf b3 d6 6f be c4 76 4a bf
       -1.1102965 -0.9000917 -0.23421745 -0.7908747
000340 7c 22 50 3f ec e5 ed be bf fc f4 be 66 dd 50 3e
       0.8130262 -0.4646448 -0.4784908 0.20396957
000350 0e d7 e0 be d8 7a fe 3e e3 ce e2 3d de e4 e3 3e
       -0.43914074 0.49703097 0.11074617 0.4451055
000360 68 aa de 3e 31 6e a6 3c 68 c9 42 3e c4 14 09 be
       0.43489385 0.020316215 0.19022143 -0.13386828
000370 1b 79 05 bf 14 4b 12 3f d5 79 22 bf 26 f5 11 bf
       -0.5213792 0.5714581 -0.6346715 -0.5701469
000380 19 71 12 3f 56 23 61 bf c3 b0 e6 bf fc e8 ba 3d
       0.57203823 -0.87944543 -1.8022693 0.091264695
000390 6f fb 6c bf e4 00 5a 3e dc d8 6b bf 25 27 0f 3d
       -0.9257116 0.21289402 -0.92127776 0.03494944
0003a0 71 4b cc bf 5e 27 e0 be b4 d6 2f bf 2c 39 0b be
       -1.5960523 -0.43780035 -0.68686986 -0.13596028
0003b0 b0 52 1a 3e d7 b8 43 bf 15 c1 0a bf 39 04 63 3e
       0.15070605 -0.7645392 -0.5420087 0.2216958
0003c0 f0 cc 43 3d 7b 49 5b 3d ba fb 1a 3d ab 25 62 3a
       0.047802866 0.053536873 0.03783772 0.0008626829
0003d0 f4 26 0b 3b 4d 6c 5a bd b3 fa 20 3d 0b 2d 16 3c
       0.0021232935 -0.05332594 0.039301585 0.0091660125
0003e0 8c aa bc bd 73 2f 25 3d db 3c 30 bc 81 49 12 3d
       -0.09212217 0.040328454 -0.010756697 0.03571463
0003f0 23 75 00 bd 81 b8 c3 bc cb f2 8c 3d cb 12 84 bd
       -0.03136171 -0.02389169 0.068822466 -0.06448897

bias f4 [128]
000000 c6 6e ba 3b c7 36 63 3f cf 06 96 bd 3c 27 9e 3e
       0.0056894748 0.8875546 -0.073255174 0.30889308
000010 35 cf 76 3e 2d e9 18 3e ce e1 cc bd f0 7a bf bd
       0.2410248 0.149327 -0.10004006 -0.0934962
000020 c2 d5 af 3e ff f8 e1 bd 10 6e 22 bf e3 53 e7 be
       0.34342772 -0.1103382 -0.6344919 -0.45181188
000030 49 55 65 be a1 d2 47 3d 3b 27 92 3e 4c 74 b7 3e
       -0.22395815 0.048784856 0.28545555 0.35830915
000040 b7 4c 42 bf 7c a1 aa 3a c8 be 4a 3c d5 de 48 be
       -0.7589831 0.0013018097 0.012374587 -0.19616254
000050 25 a6 a7 be 52 69 02 bf 07 e1 0b 3e 64 ce 28 bf
       -0.32743946 -0.50941956 0.1366006 -0.6593993
000060 a8 fe 81 bd 27 8f 14 be f7 d4 5c bd 71 0e 00 3e
       -0.063474 -0.14507733 -0.053914037 0.12505509
000070 44 aa 67 be 58 4a 87 be 27 21 94 be ce e1 0a bd
       -0.22623545 -0.26423907 -0.28931543 -0.03390675
000080 a2 a0 8a 3e e6 37 bc be de 04 35 3c 06 1f ae 3e
       0.27075678 -0.36761397 0.011048524 0.34008044
000090 09 d5 c7 3e 05 84 0e be bf 02 4e bc 28 0d 3f bc
       0.3902972 -0.13917549 -0.012573897 -0.011660852
0000a0 45 c9 5e be 9c d2 19 bf 83 10 87 3d d5 02 9b be
       -0.21756466 -0.6008699 0.06594946 -0.30275598
0000b0 f5 4a b3 bd f9 48 2f 3f 57 6d 4d be 74 05 87 3c
       -0.08754531 0.6847072 -0.20061241 0.016482092
0000c0 da 09 2a 3f cd 4f 99 be 69 ae 11 3f b5 8a af 3e
       0.6642128 -0.29943696 0.56906754 0.34285513
0000d0 92 ba 09 be d0 ee 0c 3e 57 b8 f2 be 5e a2 2e 3e
       -0.13450077 0.13762975 -0.47406265 0.17054126
0000e0 6a a2 59 bd 68 ea 83 be bd b2 02 3f 81 f7 f3 3c
       -0.053133406 -0.25764775 0.5105398 0.029781105
0000f0 66 56 0d bd ec 09 f7 3e 30 08 51 bc f8 c2 b5 bd
       -0.034506224 0.48249757 -0.0127583 -0.08875078
000100 66 e3 b9 bc 46 ec 1c 3f 80 d5 4b bd 7f b7 8d be
       -0.02269144 0.61298025 -0.049764156 -0.2767906
000110 35 d2 09 be 07 b3 81 bd 0b 07 32 3d 47 9c 6b be
       -0.13459094 -0.06332975 0.043463748 -0.23008834
000120 a4 d3 d4 bc 06 9f d6 be b2 8a b6 3d dc c7 2a 3d
       -0.025979824 -0.419182 0.08913173 0.041694507
000130 f7 06 b1 3e c8 26 fe be 12 e5 79 bd 43 3d a0 3d
       0.34575626 -0.49638963 -0.061009474 0.07824185
000140 46 17 ca 3e 98 c9 27 bf 33 d6 23 be 2d d1 f0 bd
       0.3947088 -0.6554198 -0.1599968 -0.11758647
000150 c7 76 c3 bd 67 59 60 bf 1a d2 1e bd 76 5c fa bd
       -0.09544139 -0.8763642 -0.038774587 -0.12224667
000160 6b 06 2f bd 23 1f c1 3c 39 dd 46 3e d8 ec 95 3f
       -0.04273073 0.023574417 0.19420327 1.1712904
000170 c3 71 01 bf 7a 28 81 3f 6b 0c 89 bd 8c a9 2b 3e
       -0.5056421 1.0090477 -0.06691822 0.16763896
000180 2c ba 00 bf ec d7 3f be a3 79 71 be 84 b3 8e be
       -0.50284076 -0.18734711 -0.23581557 -0.27871335
000190 40 6a 9c bd dc a9 3c 3e eb 2d 1d be 28 e1 a8 be
       -0.07637453 0.18424171 -0.15349548 -0.3298428
0001a0 26 09 ab bd 26 7c ef be b3 69 a6 bd 61 fe aa bd
       -0.08351354 -0.46774405 -0.08125629 -0.083493
0001b0 52 69 69 be bc 9d f1 3e eb 9a c1 3d 27 31 d9 be
       -0.22794083 0.47190654 0.094533764 -0.42420313
0001c0 c8 1a bc bd 1f 9b 63 be 95 b6 82 3d 99 aa b7 ba
       -0.091847956 -0.22227143 0.06382481 -0.0014012634
0001d0 c5 37 4c be 0b cd a6 bd fc 4b 25 bd 6b 9c e3 3d
       -0.1994315 -0.081445776 -0.040355667 0.11113819
0001e0 f4 b7 bc bd 42 5f 58 3c f3 e6 37 bd 10 47 6a be
       -0.09214774 0.013206305 -0.044897985 -0.2287867
0001f0 2c 5e 40 bd 2c 5b 80 be 39 73 04 3f 80 3a d6 3e
       -0.04696481 -0.2506956 0.51738316 0.41841507

weight f4 [64, 128]
000000 f2 76 7b be 4e 98 eb bd da 3c c6 3e 7e 00 45 bc
       -0.24557093 -0.11503659 0.387183 -0.012024043
000010 6d 89 88 3e dc f2 33 bd c0 d4 0b bd d2 69 12 3d
       0.26667348 -0.04393278 -0.03413844 0.03574545
000020 0f 46 af 3d 52 52 c2 3d e9 63 81 bc 35 71 19 bf
       0.085582845 0.094883576 -0.015794711 -0.59938365
000030 1a 49 44 bf 0e 0e 94 be 96 c8 37 3f 12 69 39 3e
       -0.76674044 -0.28916973 0.71790445 0.18106487
000040 21 52 19 bf 8f 44 a6 3d f2 24 d0 3c a1 2f b6 3d
       -0.59890944 0.08118545 0.025408242 0.08895803
000050 3c 28 ea be 45 f3 0a bd 60 4e a6 3e f9 df 1c 3f
       -0.4573382 -0.033923406 0.3248167 0.61279255
000060 fa 8a 4d be d2 b8 10 3f 15 73 98 bd b1 4d 67 3e
       -0.20072547 0.56532013 -0.07443825 0.2258823
000070 70 e2 58 3e 69 4e 98 bd 6d 52 14 3f 2b 4a 47 be
       0.21180129 -0.074368306 0.5793827 -0.19461887
000080 d1 0b fd 3c 53 35 6b 3e 27 01 3e be 3a 44 60 3d
       0.030889424 0.2296956 -0.18555127 0.054752566
000090 28 db c8 3e e5 ae 15 3f 9e 82 ce 3d 79 4f 5d bd
       0.39229703 0.5846999 0.10083507 -0.05403087
0000a0 77 3f c0 be 0f 97 35 bf 64 4d 87 bb 17 58 89 3e
       -0.3754842 -0.7093362 -0.0041290987 0.2682502
0000b0 cb 71 51 bd 4e d4 a4 3e ad 45 29 be 16 31 15 be
       -0.051133912 0.32193226 -0.16530485 -0.14569506
0000c0 17 3d 5a bf f5 33 24 be f0 8e 96 3e 15 4f 00 bf
       -0.85249466 -0.16035445 0.29405928 -0.5012067
0000d0 43 bf 38 be 3a d0 b5 3d 8b 1d 42 3e f7 cb 3f bf
       -0.1804171 0.08877607 0.18956582 -0.749206
0000e0 32 23 61 bd f8 f8 40 3e 79 e6 02 3f 77 a6 ed 3e
       -0.054965205 0.18844974 0.51132923 0.46416065
0000f0 82 e2 1f 3d 15 90 80 bd 53 c7 62 bd bc a8 20 3e
       0.039034374 -0.062774815 -0.05536587 0.15689367
000100 8c 29 4e 3d 28 40 74 3f 24 6a 01 bd 91 fd 28 3e
       0.05033259 0.95410395 -0.031595364 0.16502978
000110 54 87 b9 3d 28 53 98 bd b7 22 f2 bc 22 ee 1a 3d
       0.09059015 -0.07437736 -0.029557569 0.037824757
000120 2d 6d a0 3c bb 83 38 3e 64 3b 36 be 75 65 0a 3d
       0.01958331 0.18019001 -0.17796093 0.033788163
000130 0b a7 f0 3d 5d 4c ac be 06 13 3e 3d 0d b5 18 bf
       0.11750611 -0.3365201 0.04640486 -0.5965126
000140 70 fd be bc ce 21 9d bd 10 2f 0b be 23 16 87 bd
       -0.023314208 -0.07672463 -0.13592172 -0.06596019
000150 c7 85 87 bd 52 0c 50 3e 8b bc f0 bc 04 87 72 bc
       -0.06617313 0.203172 -0.02938678 -0.014802698
000160 0c 78 84 3d c8 d6 ab bc 78 9b 90 bd cd 1a 3d 3e
       0.064682096 -0.02097644 -0.07060903 0.18467255
000170 91 a9 c2 bd 70 b0 24 bd b2 8d 1e bd 20 79 cb 3b
       -0.095049985 -0.040207326 -0.03870935 0.0062095076
000180 ef b3 9c 3e bd c7 d1 3e 59 8d 05 bf 0a 27 a2 3d
       0.30606028 0.409727 -0.52168804 0.07917602
000190 bb ed 22 3d a1 7a 57 3e 7b 90 1c be bf dc 00 3e
       0.0397775 0.21042873 -0.1528949 0.12584208
0001a0 fc bc 15 3f 11 54 bc be 8e f9 50 3d db e5 b4 bb
       0.5849149 -0.36782888 0.051019244 -0.005520565
0001b0 b0 ab 08 be af 2f 0d bf 32 4c 19 3f 5f 6c 14 be
       -0.13346744 -0.55150884 0.5988189 -0.14494465
0001c0 bb 00 10 3d 23 95 dc 3e 35 39 ab be a8 53 16 3d
       0.035156947 0.43082532 -0.33442083 0.036700875
0001d0 88 ad 9e be 58 0b 16 3d 72 db 0f 3c ec 25 a4 3e
       -0.3099177 0.036631912 0.008780347 0.32060182
0001e0 fb a8 8e bd 34 02 7a bd 1a dd 2d 3e f5 0f 56 bf
       -0.06965824 -0.061037257 0.16978875 -0.836181
0001f0 71 f6 b4 bd a8 0d f8 3c ad 0e a1 bf 1c e0 16 bf
       -0.088360675 0.03027995 -1.2582604 -0.58935714
000200 2f c8 e9 3e 3a fe 96 3e fb 51 ba 3e 47 58 1d 3e
       0.4566054 0.29490834 0.3639067 0.15365706
000210 54 68 30 3f e3 c6 93 3c cc aa d8 bb 72 6b a7 3d
       0.6890919 0.018039173 -0.0066121574 0.081747904
000220 5f d4 f6 be b3 a3 3d bd 8e db 6f bf 17 c5 a0 3e
       -0.482089 -0.046298694 -0.9369439 0.31400368
000230 66 98 ef be 38 19 33 3f c9 0d 28 3f dc e2 0b be
       -0.46795958 0.69960356 0.65646034 -0.13660759
000240 7f 89 7e be 2f 11 04 3d 72 a0 83 3c 3c 8d 2f 3e
       -0.24857138 0.03224295 0.016067717 0.1714372
000250 33 12 02 bc 05 06 a8 3d c4 d5 04 3e eb c9 38 bf
       -0.007938909 0.08204273 0.1297217 -0.721831
000260 6c 18 ec bd 97 ba 13 be 99 d3 b7 3c ef 40 dc be
       -0.115280956 -0.14426647 0.022439765 -0.4301829
000270 c8 8e c5 bd 72 47 02 be 26 d1 41 be 34 f8 c2 be
       -0.09646374 -0.12722567 -0.1892744 -0.3807999
000280 de de 75 be f0 22 40 3e ed e6 de 3d 8d d0 57 bf
       -0.24010798 0.18763328 0.10883889 -0.843026
000290 f8 6b 34 be 99 b0 e7 3e 53 63 34 3d ec 55 cd bc
       -0.17619312 0.4525192 0.044040035 -0.025065385
0002a0 6c ad d8 3d 16 30 ef be 2e 10 b8 be ff 22 60 3e
       0.105799526 -0.46716374 -0.35949844 0.2188835
0002b0 51 d5 a3 3d 68 c0 1d bf 2c db 9d 3e a2 12 18 3e
       0.07999671 -0.61621714 0.30831277 0.14850858
0002c0 c4 05 3b 3f 07 4d 63 be 65 1f c8 3c d4 37 07 bf
       0.7305567 -0.22197352 0.024429033 -0.5281956
0002d0 f9 8d 6e bf b0 5b a1 3b 80 e1 0a bf 1f 2c 06 bf
       -0.93185383 0.00492426 -0.54250336 -0.52411073
0002e0 fc 07 39 be 2a 45 cb 3e 56 5e 99 3e a2 64 92 3d
       -0.18069452 0.39701205 0.29954785 0.071481004
0002f0 22 0c c6 bc 0b 15 3b 3d 9c ef 80 bd a4 02 4b 3d
       -0.024175707 0.045674365 -0.06295702 0.049563065
000300 64 e1 2d 3d 6e 14 dc 3e 75 b8 23 3c c9 2d 2c be
       0.042451277 0.42984337 0.009992708 -0.1681434
000310 11 2d 4f 3d db 43 99 bd 4c 89 50 be 66 b7 b7 be
       0.050580088 -0.074836455 -0.20364875 -0.3588211
000320 aa 7a cf bd 19 5d 75 3e 24 5d 99 3e 38 3c 24 3d
       -0.10130818 0.23961295 0.29953873 0.04009649
000330 79 8b 04 3f 7b b8 39 be 17 f5 a2 3d 10 80 96 be
       0.5177532 -0.1813678 0.079569034 -0.2939458
000340 79 37 7a 3e 63 81 42 3d 63 00 13 bf 1f c4 f7 be
       0.24435224 0.047486674 -0.57422465 -0.48391816
000350 15 f3 00 bd c5 64 d5 be 83 77 95 3c 95 b1 f4 3b
       -0.03148182 -0.41678444 0.018245464 0.0074674585
000360 ca 9a 82 bd 3c b8 58 3d e3 e3 5d 3e e6 7e 44 3f
       -0.0637718 0.052910075 0.21668963 0.7675613
000370 16 08 10 3e 21 4c 91 be 28 50 a0 bc e6 a8 6c 3d
       0.14065585 -0.28378394 -0.019569471 0.05777826
000380 1d 30 fe be 15 f1 3d 3c 97 25 6a 3e 69 ff 44 bf
       -0.49646083 0.011593123 0.22865902 -0.76952225
000390 7a e8 de bc b5 5f 88 3d 74 dd d2 3b 02 40 17 3f
       -0.027210463 0.0665888 0.0064350907 0.59082043
0003a0 4d 5b 80 3e 4f ab f7 be 72 11 3c bd 56 e6 88 3c
       0.25069657 -0.48372886 -0.045915075 0.016711395
0003b0 ac 74 9a 3e e6 48 30 be 6b 57 12 3f f1 11 4b 3e
       0.3016714 -0.17215309 0.5716464 0.19831063
0003c0 c8 4f 4e 3e 78 be d7 3e fe 06 8d be b9 39 af bd
       0.20147622 0.42137504 -0.27544397 -0.085559316
0003d0 57 da 57 3e 56 9e 21 bd 69 a1 a5 bd 0a cd c6 bc
       0.21079384 -0.03945764 -0.08087427 -0.024267692
0003e0 97 f7 2a 3d c4 03 14 bd 66 ec f0 be 88 8a 20 be
       0.041740026 -0.036136404 -0.47055358 -0.15677845
0003f0 98 d7 71 bd 0b 54 e6 3d b9 51 55 3e 84 d7 f7 bc
       -0.059043497 0.11246499 0.20831956 -0.030254133

bias f4 [64]
000000 39 d4 40 3e a5 97 26 3f fb 28 3d bf 33 80 8f be
       0.18830957 0.6507514 -0.73890656 -0.28027496
000010 35 47 07 be 6a a2 4f bd 6e 70 fa 3e f1 2e 0e 3f
       -0.13210757 -0.050692 0.48913902 0.55540377
000020 91 ef 85 3e ff 55 28 bf 2a d8 69 3e e4 04 1c 3f
       0.26159337 -0.6575622 0.22836366 0.6094496
000030 32 44 3e 3e fe e5 0f bf 14 bb 1f be 05 89 40 3d
       0.18580702 -0.56210315 -0.15598708 0.047005672
000040 0d cc f4 3d bb 86 57 bf a5 33 41 3f b3 78 85 be
       0.11952982 -0.8418996 0.7546943 -0.2606865
000050 c9 e1 ea bd eb ba 0b bf 9f 7a 2e bf 81 c3 3a be
       -0.11468846 -0.5458209 -0.68155855 -0.18238641
000060 92 d5 1b be ec f8 7d bd 74 9d 10 be 14 c4 9f be
       -0.1521819 -0.06200497 -0.14122564 -0.31204283
000070 86 c7 df 3e e9 e8 33 bf 90 88 4c bf 48 ce ba 3e
       0.43706912 -0.7027727 -0.7989588 0.36485505
000080 9c 62 ea be b1 1b 9a be af cc 66 bf 23 36 08 bf
       -0.45778358 -0.30099252 -0.9015607 -0.53207606
000090 13 6c 47 bf a6 8e 57 bd 9b 4c bf 3e eb 95 da 3e
       -0.77899283 -0.052626275 0.37363133 0.42692503
0000a0 4a 4a 2a 3f ae 12 8c be 23 5c bf be e9 9d 22 bd
       0.66519606 -0.27358 -0.37374982 -0.039701376
0000b0 58 90 4f 3e 9f 52 0f 3e 17 8c 2a 3f c6 a1 17 3d
       0.20269907 0.13996361 0.6662001 0.037019514
0000c0 fa 3d 5e be df be 89 3e 63 92 b3 be 1a 78 24 3f
       -0.2170333 0.26903436 -0.35072622 0.6424576
0000d0 bf b4 63 bf 9d 10 49 3f df bd c0 3e c4 3b 71 3f
       -0.8894767 0.78540975 0.3764486 0.9423182
0000e0 36 f0 30 bf cb 91 cc bd 6e 98 4d 3e 69 36 8c 3e
       -0.6911653 -0.09988745 0.20077679 0.27385262
0000f0 9f aa 3c bc 14 dc 8a be c3 2d 4c 3e c7 a7 fd be
       -0.011515289 -0.2712103 0.19939332 -0.49542066

weight f4 [10, 64]
000000 fa 22 a4 be 64 7f 27 bf c3 61 19 3e 57 40 a1 3e
       -0.32057935 -0.6542876 0.149787 0.314944
000010 5c 62 c8 bd 45 a3 0e 3d 2a 79 83 bf c0 93 12 3d
       -0.097843856 0.034823675 -1.0271351 0.035785437
000020 44 44 4d 3d 54 26 03 bd f1 ee c6 be c8 fa bb 3d
       0.05011393 -0.032018974 -0.38854173 0.09178692
000030 b3 6a 7b 3e 62 84 76 3e f0 08 a9 3e ea 81 56 bf
       0.24552421 0.24073938 0.3301463 -0.83791983
000040 28 a0 5a be 5e 22 9c be d0 c0 94 3e b2 bf ac bd
       -0.21350157 -0.3049497 0.29053354 -0.084350005
000050 12 2a 87 bf 2c b0 5b 3e 06 d2 a2 be c9 97 58 3d
       -1.0559714 0.21453923 -0.3180086 0.05287913
000060 ab 00 2a be b2 37 28 be 33 e0 0d bd 0e df 1e 3c
       -0.16601817 -0.16427496 -0.03463764 0.009696735
000070 f6 19 b5 3e 5e 18 04 bf cf a4 65 bd 6c 7e 43 3e
       0.3537137 -0.5159968 -0.056065377 0.19091195
000080 ea d5 1b bd ae 2c 23 bf 45 d1 f7 3e 8c ae 4c 3e
       -0.0380458 -0.6374005 0.48401847 0.1998846
000090 73 47 10 be 24 ff 83 bd 01 99 42 bf 00 e6 a0 3e
       -0.14089756 -0.064451486 -0.76014715 0.31425476
0000a0 ec ae a8 3e 7c 65 52 be 3a 54 15 3e 86 31 71 3c
       0.32945955 -0.20546526 0.14582911 0.01472128
0000b0 8f 17 73 bd 40 0a 3b 3e b9 28 34 be a6 6d 28 bf
       -0.05934864 0.18265629 -0.1759366 -0.6579231
0000c0 4a 41 ef be 0a ce b3 3e 48 3c a2 3e e2 6e 84 3d
       -0.467295 0.35118133 0.31686616 0.06466462
0000d0 48 7f 5a bf 39 5b e7 3c 73 bb 96 bc 75 bb bf 3e
       -0.85350466 0.02824174 -0.01839993 0.37447706
0000e0 d0 1a 0e be db 84 5d bf f5 6f 9a bf 1e 30 2c 3e
       -0.13877416 -0.86530846 -1.2065417 0.1681523
0000f0 03 10 c8 be 6b 9a ba 3e 97 3c c1 bd 78 d1 82 be
       -0.39074716 0.36445937 -0.09435385 -0.25550437
000100 53 f1 fd be c9 62 49 bf 32 c6 08 bf 50 3a 1e 3e
       -0.49598178 -0.7866636 -0.5342742 0.15451932
000110 5f b6 f8 bd 54 4f 12 be 30 55 2f bf 39 24 24 3f
       -0.121441595 -0.14288074 -0.6848936 0.6411777
000120 90 ae 32 be a2 93 8e be 58 45 d6 3e ba 23 32 bf
       -0.17449403 -0.2784701 0.4184978 -0.69585764
000130 4e 61 09 bf 4e 54 a4 3c 33 60 e0 3d 6e 11 12 bf
       -0.536641 0.02005973 0.109558485 -0.57057846
000140 cd f5 a3 3e 62 88 a2 3e 21 c2 81 3e a5 03 02 bc
       0.3202347 0.31744677 0.2534342 -0.007935439
000150 a2 a0 17 3e e2 a8 72 be c9 20 ac be 6f ea 0b bd
       0.1480737 -0.23697236 -0.33618763 -0.03415912
000160 05 c0 98 3d 03 df 89 bd 81 51 42 3d f8 95 97 3e
       0.074585 -0.06731989 0.04744101 0.29606605
000170 77 3c b3 be 7f d9 16 3d 1e 6c 83 be 48 4f 8a 3e
       -0.3500707 0.036828514 -0.25668424 0.27013612
000180 25 82 82 3e 2e b5 02 bc 70 62 92 be a6 3c b9 3b
       0.25489917 -0.007977767 -0.28590727 0.005652982
000190 d6 89 3b 3e c7 2e 01 be ee 37 a8 be e2 30 fd be
       0.18314299 -0.126155 -0.3285517 -0.49451357
0001a0 45 b1 59 3e 65 89 2d 3e 71 c0 47 bf 90 21 3d bf
       0.21259029 0.16946943 -0.7802802 -0.7387934
0001b0 9f f8 4e be c9 e2 52 be 2d 5e 2c bf a4 2c a9 be
       -0.20212029 -0.20594324 -0.673312 -0.3304187
0001c0 58 53 16 bf ed 95 a9 3e 0f 77 20 bf c1 9f 8a be
       -0.5872092 0.33122197 -0.6268167 -0.27075008
0001d0 be aa 0a be b2 79 c2 be f1 50 bd bc c2 fe b8 3d
       -0.13541695 -0.3798347 -0.023109885 0.09032966
0001e0 c4 f6 4d 3e ed 80 9f be b0 48 87 bf 09 54 88 3d
       0.20113665 -0.3115305 -1.0569057 0.066566534
0001f0 da b5 e1 be ba fb 4a 3d b2 e5 42 bd ed 99 be be
       -0.44084054 0.04955647 -0.047582336 -0.3722681
000200 87 c0 aa 3c 01 3d 44 3e 58 5c 81 be 42 73 77 be
       0.020843757 0.19163896 -0.25265765 -0.24165061
000210 04 c7 2e 3c 75 3a 4a 3e 0d 29 03 3e 97 05 4e be
       0.010667566 0.19748862 0.12808628 -0.2011932
000220 59 14 98 be 59 7f 7f be e9 a5 1c 3e 95 6f 96 bd
       -0.29703024 -0.24950923 0.15297665 -0.07345501
000230 14 e7 74 3e 45 bb df 3e c9 ed cc 3c 45 06 5b 3d
       0.23916274 0.43697563 0.025015729 0.053472776
000240 c4 15 2e bf ab 04 f0 be 2b 20 12 3e d7 6b db bc
       -0.6800196 -0.4687856 0.14270084 -0.02678482
000250 ea e3 36 be 59 53 a7 3d 19 82 bb 3e b8 b2 93 3d
       -0.1786038 0.08170194 0.36622694 0.07211822
000260 9c 3b 18 bd ad ec 09 3d 90 c0 f8 3d 46 8a fe 3e
       -0.037166223 0.033672977 0.121461034 0.4971487
000270 86 c2 29 be 45 53 2f bf 85 cd 73 be 10 65 36 be
       -0.16578111 -0.68486434 -0.23808868 -0.1781199
000280 79 8a 89 be 72 bd 35 bf ff 39 1a be 2a 70 7e 3e
       -0.2686346 -0.70992196 -0.15061186 0.24847475
000290 56 73 3b be 35 78 16 3d 3f 67 ec 3d 0d e4 79 3e
       -0.18305716 0.036735732 0.1154313 0.244034
0002a0 72 42 9b 3e f1 84 0c be d5 6a 2f be 1a ad 75 3e
       0.3032413 -0.13722588 -0.17130597 0.23991814
0002b0 af 61 2b 3d 70 a1 0d bd a3 a7 10 3a fa ee a5 3d
       0.041841205 -0.034577787 0.0005518144 0.08102222
0002c0 3d 0e 65 3e 24 e0 2d 3e 2b 5c b9 ba 6d c0 d5 3d
       0.22368713 0.16980034 -0.0014141848 0.10437093
0002d0 2e da 24 bf 53 7f 1b be f7 df 68 3e de de f8 3e
       -0.64395416 -0.15185289 0.22741686 0.48607534
0002e0 b4 13 0c bf 0f d0 09 3e 4c 6b 09 bf ce 69 f8 bc
       -0.54717565 0.13458274 -0.5367935 -0.03032389
0002f0 55 46 99 3d e6 be 86 3d 90 05 31 3e c8 41 c8 3e
       0.07484118 0.0657938 0.17287278 0.39112687
000300 df 84 78 3d 23 4b ce 3e 45 cc 1d bf 43 a0 5b 3e
       0.06067359 0.402917 -0.61639816 0.21447854
000310 c4 7a fa 3d 53 34 7b 3e 8e 87 55 3e b1 ef d0 3e
       0.12230447 0.24531679 0.20852491 0.4080787
000320 53 a8 a5 bd 8e c0 09 bf 87 4e 24 3e 70 85 3e 3e
       -0.08088746 -0.5380944 0.16045581 0.1860559
000330 3a 37 9d 3e 73 5d 64 3e ed 83 75 bc 73 fe 9a bd
       0.30706197 0.22301273 -0.014985067 -0.075680636
000340 ec 42 84 3e e1 55 55 be e3 96 7f 3e 81 f8 c3 3c
       0.25832307 -0.20833541 0.24959902 0.023922207
000350 e3 54 0b 3d 5b b0 29 bf 4f b5 8f 3e 96 4a e9 bb
       0.0340165 -0.6628472 0.28068015 -0.007119487
000360 97 b5 7a 3d e1 9f ff bd d4 51 8b bd 15 16 91 be
       0.061208334 -0.12481666 -0.06802717 -0.2833716
000370 21 b5 70 3e 7d 7f 6c be fa aa 0d be cb 67 94 3e
       0.23506595 -0.23095508 -0.13834754 0.28985438
000380 7a 18 05 3c 83 7a 90 be 1c 87 6b bd 26 a0 7b be
       0.008123511 -0.2821847 -0.057501897 -0.2457281
000390 14 61 86 3e d0 50 53 3d ff 7f 47 bf dc 3e f7 bd
       0.2624594 0.05159074 -0.7792968 -0.12072536
0003a0 b1 19 82 3e 47 99 14 bf 14 28 6c bb 7f 99 95 be
       0.25410226 -0.5804638 -0.003603463 -0.2921867
0003b0 f2 b5 41 3c 29 04 b6 be af 61 d0 be 9e cb de be
       0.011823164 -0.3555005 -0.40699527 -0.43514723
0003c0 de 9b 9f 3d 48 60 a8 3e 82 11 6e be 7e 8e 04 3f
       0.07793401 0.32885957 -0.23248866 0.51779926
0003d0 52 15 a1 be 9e f3 c1 3e 27 99 18 3e 0e f9 18 3e
       -0.3146158 0.37881178 0.14902173 0.14938757
0003e0 68 b1 c1 be c8 bf 9d be 09 f3 c9 bf f7 76 45 3e
       -0.37830663 -0.3081038 -1.5777293 0.19283663
0003f0 d8 f6 e5 3e 86 e1 81 3c 62 f5 96 bf aa a5 14 be
       0.4491489 0.015854608 -1.1793635 -0.14516321

bias f4 [10]
000000 f1 48 b0 3e 42 7c 1d bf eb b8 ba 3f df ba 2e 3f
       0.3443065 -0.6151773 1.4587682 0.6825389
000010 16 f8 25 bf e2 fd 52 bf 28 f2 99 3e e6 ff 18 3f
       -0.64831674 -0.82418644 0.30067563 0.5976547
000020 82 b9 51 be 43 77 93 be
       -0.20480922 -0.28801927
